.github/workflows/last_brain.pth (torch_old, 5158 bytes, 12 tensors)

fc1.weight f4 [30, 5]
00000000: 88ac 6f3e 4abd ec3e 58be 663e 7c09 26bf
00000010: 2245 703f 1f77 483e 4f77 17be 16c1 f93e
00000020: 202e ea3e 9da5 6bbe 24d1 2d3e 130d 473e
00000030: 16e6 123f ca23 7d3e 5f0e b4be 798f 303e
00000040: 875d 21be 37b6 3cbd ae16 b0be 2525 6b3e
00000050: b0f5 0d3e e0f3 2c3d 5406 a2be 001f 553c
00000060: f069 12be 7a90 a5bd bfb4 64be 3f1a 3abe
00000070: aa32 4e3e ec6b 77be 7f63 953c 100d 6fbe
00000080: 8ab0 b43e 41bc 5d3f 0f39 35bf bdfc 26bf
00000090: a6b8 a2be cc34 803e cc4e 6ebe 4482 91be
000000a0: 10f7 053d d0ac 15be 20a5 33be 2482 82be
000000b0: 70e9 c5be e976 883e d3c0 0ebe ff5c 4c3f
000000c0: 0e8d 4fbf 1bbc 7b3f 840b 143f 143b 433e
000000d0: 0c2b f0be c926 d3be b648 543f 165c 523e
000000e0: efae 0c3f 42fe 8fbd de77 78be 1662 a03d
000000f0: 683a 063e 5e4c b4be a347 c2be f735 81be
00000100: c261 95be 1668 3a3e 74d7 413d 324c 743e
00000110: ba09 85be 3837 173f e794 213e 64ce 303f
00000120: 40f6 4f3e f483 2dbf 41b8 1b3e 4c1f 983e
00000130: e831 90be 962f e23e a10e 0cbf 675b 2c3d
00000140: a3aa 93be 9ded b53e 5e3a 87bd f968 d53c
00000150: 2294 e1be 5d1a 94bc 97f2 0d3d 8545 653d
00000160: 2dde d63d c1d2 ad3e 5488 8f3e 88fa ac3e
00000170: 9334 bd3c 3c09 8f3d 7c1d 6c3e 34ff 5b3e
00000180: a637 733e 3b07 2bbe 1f1d 323e b5a6 17bf
00000190: 5eca b63d e564 083f 319e 913d fd71 00bf
000001a0: 347c 1a3f 60c4 d73e 7d82 973d bad9 043f
000001b0: 039b f83e 8e5a 3fbf 0cd0 923e f5f9 033c
000001c0: 3abb 8fbe 6435 f13e de9d fabe 596a 083f
000001d0: 11d6 103e b17f 013e f5b0 0bbf ee43 00be
000001e0: 92f4 31bf 0b73 6cbe e5fc 99be 2fe2 0d3f
000001f0: 4d36 65bf ba00 0a3f d79c 9b3e 655a d3be
00000200: 50df aa3e b3ac 303e 8c33 6ebe 73e3 89be
00000210: ba83 14bf 1ed3 003e 8682 99be c80f abbd
00000220: 43fa a2bd e5e9 ab3e af6a f83e 3fa4 d5be
00000230: 3024 b63e a087 113f fbec 36bf f647 8fbe
00000240: f61a 443f f940 f1be 9ee3 003e a61c 06bd
00000250: fe45 c03d 8fe6 973e
0.23405659 0.46238166 0.22533548 -0.6485822 0.9385549 0.19576691 -0.14791606 0.48780125
0.45738316 -0.23012395 0.16974312 0.19438581 0.57382333 0.24720684 -0.35167214 0.1724223
-0.15758334 -0.04607221 -0.34392303 0.22963388 0.13863254 0.042224765 -0.31645453 0.013007879
-0.14298224 -0.08084197 -0.22334574 -0.18174075 0.20136514 -0.24162263 0.01823592 -0.23344827
0.3529094 0.8661538 -0.7079019 -0.652294 -0.317815 0.2504028 -0.23272246 -0.28419697
0.03270632 -0.14616704 -0.17543459 -0.25489914 -0.3865466 0.2665322 -0.13940744 0.798294
-0.8107461 0.983339 0.5783007 0.19065505 -0.46907842 -0.41240528 0.8292345 0.2054294
0.5495443 -0.07030918 -0.24264476 0.078312084 0.13108218 -0.35214514 -0.3794528 -0.25236484
-0.29176146 0.18203768 0.047324613 0.23857191 -0.25983983 0.5906863 0.15779458 0.6906493
0.2030878 -0.6777947 0.15207006 0.29711378 -0.28163075 0.4417693 -0.5470982 0.042079356
-0.28841123 0.35532847 -0.066029295 0.026051031 -0.4405833 -0.018078977 0.03465518 0.055974502
0.104915954 0.33949855 0.28033698 0.3378489 0.023096358 0.06984183 0.23058122 0.21484071
0.23751697 -0.16701977 0.17393921 -0.5923875 0.08925317 0.5327895 0.07110251 -0.5017393
0.6034577 0.4214201 0.073979355 0.51894724 0.48555765 -0.7474755 0.28674352 0.0080552
-0.2807253 0.47111046 -0.48948568 0.53287274 0.1414416 0.12646367 -0.5456689 -0.12525913
-0.6951381 -0.2309076 -0.30075756 0.55423254 -0.8953598 0.5390736 0.30393097 -0.41279903
0.333735 0.1725338 -0.23261851 -0.26931342 -0.580135 0.12580535 -0.29982394 -0.083526194
-0.0795789 0.33576885 0.48518893 -0.41726872 0.35574484 0.5684757 -0.71455353 -0.2798459
0.7660364 -0.47119883 0.12586829 -0.032742165 0.0938835 0.2966809

fc1.bias f4 [30]
00000000: d57b 03bf 417b 353e 81ea 08be 87fd b43e
00000010: 5da8 e2be 0ee8 043f 800d 2bbf 3e54 cc3e
00000020: be5b 44be ae70 6cbe 1be7 c7be ba3b 90be
00000030: f0f8 94be bc4e 713e 824f f5be d420 9a3e
00000040: 1a45 373e b897 c3be e98c 0c3d b08e 06bf
00000050: 4ba7 a83e d51a d9be 54bd ed3e 656f b2be
00000060: 6378 1fbf c880 d13e 0d3b 553e d0bc 6bbe
00000070: 1b2a ecbe 1d6e 2e3f
-0.5136083 0.17722799 -0.13370706 0.35349676 -0.44269076 0.5191659 -0.66817474 0.39908022
-0.19175622 -0.23089859 -0.39043507 -0.28170568 -0.29096174 0.23565191 -0.47912222 0.3010317
0.17897454 -0.3820169 0.03431407 -0.52561474 0.32940134 -0.42403284 0.46433508 -0.34850612
-0.6229307 0.40918565 0.20823307 -0.23021245 -0.46125874 0.6813677

fc2.weight f4 [3, 30]
00000000: 5a10 cbbe 4b81 febd 62b9 253d 2bfd 9fbe
00000010: 29c8 86bd 8f3b bd3d e61f 10bf 4f85 313f
00000020: 205f ecbb 36d4 80be 164b a7be a576 1bbe
00000030: 2ace 863d e56c b9be 8adf eabe 9f73 00be
00000040: af87 0b3e 7c9e 903d 5f35 b4be 7ff8 8fbe
00000050: 1388 15be 9d9b 8bbe 727b ffbc 5319 21be
00000060: a494 1dbf b0cc 903d bb3f 643d 945d b0be
00000070: 77ed 1fbf 85bc 093f 92da 36bf c030 1dbe
00000080: 0b89 9fbd 6323 853e c09c 773b c976 613e
00000090: fba5 27bf 9db9 ee3e 40b7 71bb 17d5 fdbd
000000a0: 23c7 4fbf 5496 75be e553 26be 26c3 62be
000000b0: bc0d 1fbf 2632 383d 4f31 653e 32cf 3f3d
000000c0: b414 d0bd 6e91 883d 2e7a 66be 3923 2fbf
000000d0: bdff 20be 0308 12be 9916 42bf 976e b3bc
000000e0: fb39 8cbe 8f1d 48bd 33c5 50bf 47b6 1b3f
000000f0: efb7 90bf a82d 85bd 8201 abbd ba80 fbbd
00000100: 4288 7dbd a556 443e e144 59bf 4248 813e
00000110: c639 e5bd ae25 5abf 84db 2ebf 8ffc 913e
00000120: 36c2 c1bd a1dc e7bd a89d c13c 566e cd3d
00000130: f3d3 efbd 8d4f 103d 7ecb 4fbe 2de3 d4be
00000140: d075 9f3e 473e 7fbd d621 7a3e 3608 763e
00000150: 8b0e d1be 67d0 433e 90b8 853e b5e1 eebd
00000160: 7fc2 2ebe 5227 ee3e
-0.39660913 -0.124270044 0.040459998 -0.3124784 -0.06581146 0.092398755 -0.56298673 0.6934404
-0.007213488 -0.25161904 -0.32674474 -0.15181978 0.065822914 -0.36215892 -0.45873672 -0.12544106
0.13625978 0.070614785 -0.3519697 -0.28119275 -0.1460269 -0.2726716 -0.031186793 -0.15732317
-0.6155493 0.07070291 0.05572484 -0.34446394 -0.6247172 0.5380328 -0.7142726 -0.15350628
-0.07789811 0.2600356 0.003778264 0.22017969 -0.6548764 0.46625987 -0.0036882907 -0.12394159
-0.81163234 -0.23983127 -0.1624294 -0.22144756 -0.6213033 0.0449697 0.22382091 0.046828456
-0.10160199 0.066683635 -0.22507545 -0.6841312 -0.15722556 -0.14260869 -0.7581573 -0.02190332
-0.27387986 -0.048856314 -0.815509 0.6082501 -1.1306132 -0.06502849 -0.08349897 -0.12280412
-0.061897524 0.19173677 -0.84870726 0.2525044 -0.1119266 -0.85213745 -0.68303704 0.28513
-0.09460871 -0.113213785 0.023634747 0.100308105 -0.11710348 0.035232116 -0.2029247 -0.4157957
0.3114457 -0.06231525 0.2442697 0.2402657 -0.40831408 0.19122468 0.26117373 -0.11664144
-0.17066382 0.46514374

fc2.bias f4 [3]
00000000: b0e1 f93d c540 903e ea96 cc3c
0.122012496 0.28174415 0.024974305

exp_avg f4 [30, 5]
00000000: 067d 12ba 515a d3ba 8e91 fcb9 b2a8 4739
00000010: b2a8 47b9 61fe 6d38 0060 c0b3 a8c1 f5b6
00000020: b661 60b9 b661 6039 012d 3639 ffd7 42b8
00000030: 43c4 b038 0f2c 42b9 0f2c 4239 f03c 66b8
00000040: 8a19 73b9 2936 4fb9 da6d f339 da6d f3b9
00000050: 0000 0000 0000 0000 0000 0000 0000 0000
00000060: 0000 0000 b8b8 9a37 5fb8 c139 a84c b338
00000070: 96e9 f239 96e9 f2b9 8bf9 1a38 16ce 4cba
00000080: 5e0a 463a aabc bbba aabc bb3a be7e 9c36
00000090: 90d3 443a 763a ec38 5e5e 6e3a 5e5e 6eba
000000a0: 0000 0000 0000 0000 0000 0000 0000 0000
000000b0: 0000 0000 320b 3aba 6bcd 39ba e5c7 d7b9
000000c0: 84b4 1739 84b4 17b9 6c0b 1139 703c 4db8
000000d0: 5869 0d3a 1876 10b9 1876 1039 1fd9 26b9
000000e0: deaa 1939 0699 d8b9 1257 7c39 1257 7cb9
000000f0: 0000 0000 0000 0000 0000 0000 0000 0000
00000100: 0000 0000 fa8c a5b8 7e69 c3b9 3b07 10b9
00000110: a069 bd37 a069 bdb7 3bef a7b8 fefc d4b9
00000120: c843 dfb8 6aa1 3e39 6aa1 3eb9 d05e 81b9
00000130: b28d 8eb9 f4b3 06b9 9085 bdb7 9085 bd37
00000140: 352d 7339 58e7 db37 1ad7 0038 1866 3738
00000150: 1866 37b8 0400 0000 0400 0000 0400 0000
00000160: 0400 0080 0400 0000 7ab7 1ab9 86b0 24ba
00000170: e4db 08b9 65ad ceb8 65ad ce38 015d 9039
00000180: 97bc 65b9 54d3 c439 b48e 81b9 b48e 8139
00000190: 9881 c2b9 188f 6638 6ba8 c4b8 d9b0 59b8
000001a0: d9b0 5938 18dc 07b8 9853 2d38 88f3 8c38
000001b0: 928b 11ba 928b 113a 9488 50b9 38c9 8e39
000001c0: 8a92 b4b8 5050 e4b8 5050 e438 e828 92b9
000001d0: 1a0d 03ba c06d 68b9 2057 27b8 2057 2738
000001e0: 0400 0000 cf72 d0b9 2880 8235 9f83 6cba
000001f0: 9f83 6c3a a8c3 efb7 e4a6 a939 1055 86b6
00000200: 925c b338 925c b3b8 0bfa 2b39 503d c939
00000210: 9009 12b4 b0af 3539 b0af 35b9 accc 92b8
00000220: 9015 17b9 adaf dd36 6513 3fb9 6513 3f39
00000230: f024 f0b7 5cf2 23ba 6073 2737 bc11 1b38
00000240: bc11 1bb8 dcc2 1039 be84 983a 1e95 8138
00000250: a1e2 8f3a a1e2 8fba
-0.0005588088 -0.0016124939 -0.00048173632 0.00019040963 -0.00019040963 5.6742112e-05 -8.958159e-08 -7.3241135e-06
-0.00021398705 0.00021398705 0.00017373638 -4.6454366e-05 8.4288906e-05 -0.00018517695 0.00018517695 -5.4893026e-05
-0.000231838 -0.00019761235 0.00046430418 -0.00046430418 0.0 0.0 0.0 0.0
0.0 1.8444247e-05 0.00036949196 8.5496635e-05 0.00046331872 -0.00046331872 3.6948866e-05 -0.00078126916
0.00075546454 -0.0014323194 0.0014323194 4.663917e-06 0.0007508332 0.00011264246 0.00090930413 -0.00090930413
0.0 0.0 0.0 0.0 0.0 -0.0007097005 -0.00070877996 -0.0004115693
0.0001446773 -0.0001446773 0.00013832533 -4.8932096e-05 0.00053944206 -0.00013776904 0.00013776904 -0.00015911878
0.0001465487 -0.00041312742 0.00024065029 -0.00024065029 0.0 0.0 0.0 0.0
0.0 -7.894072e-05 -0.00037271896 -0.00013735604 2.2579741e-05 -2.2579741e-05 -8.007741e-05 -0.00040624285
-0.00010646094 0.00018179943 -0.00018179943 -0.00024675438 -0.00027189922 -0.00012846274 -2.259275e-05 2.259275e-05
0.00023191127 2.6214562e-05 3.0717907e-05 4.3725682e-05 -4.3725682e-05 6e-45 6e-45 6e-45
-6e-45 6e-45 -0.00014754935 -0.00062824076 -0.00013051886 -9.855143e-05 9.855143e-05 0.00027535114
-0.00021909397 0.00037541485 -0.0002471112 0.0002471112 -0.00037099118 5.496954e-05 -9.3773786e-05 -5.1901534e-05
5.1901534e-05 -3.2391486e-05 4.1324267e-05 6.7210814e-05 -0.00055521086 0.00055521086 -0.00019887305 0.0002723427
-8.610364e-05 -0.000108868466 0.000108868466 -0.00027877768 -0.00049992057 -0.00022166129 -3.9897044e-05 3.9897044e-05
6e-45 -0.0003975839 9.723053e-07 -0.00090222986 0.00090222986 -2.858213e-05 0.00032358535 -4.003414e-06
8.552628e-05 -8.552628e-05 0.00016400979 0.0003838339 -1.3600788e-07 0.00017326954 -0.00017326954 -6.9999456e-05
-0.00014408515 6.6067646e-06 -0.00018222404 0.00018222404 -2.862743e-05 -0.0006254071 9.9808385e-06 3.6971396e-05
-3.6971396e-05 0.00013805501 0.001163624 6.1789746e-05 0.0010977575 -0.0010977575

exp_avg_sq f4 [30, 5]
00000000: 7ef6 b137 1346 0e38 fd21 3f37 e30d f637
00000010: e30d f637 eb26 8834 db00 f534 5d20 5e34
00000020: b60e ea34 b60e ea34 6023 b234 2b14 4435
00000030: 20bd 6834 1633 aa34 1633 aa34 1d52 8235
00000040: 14e7 2236 a6f0 1235 412e 1736 412e 1736
00000050: 0000 0000 0000 0000 0000 0000 0000 0000
00000060: 0000 0000 7cdc 8a35 cc03 2f36 56d6 1835
00000070: c71b ec35 c71b ec35 7362 ff36 4977 3437
00000080: 201f c836 0b40 1337 0b40 1337 8436 fd34
00000090: 9f6a b636 e4c0 8035 bd32 da36 bd32 da36
000000a0: 0000 0000 0000 0000 0000 0000 0000 0000
000000b0: 0000 0000 5904 2d37 068e 5c37 27d6 cf36
000000c0: f0f4 5137 f0f4 5137 ef49 1e37 b5ae 5037
000000d0: 415e 5d36 2be2 8437 2be2 8437 d1ac 3036
000000e0: 1a97 c436 e9f0 8b35 08b8 2a36 08b8 2a36
000000f0: 0000 0000 0000 0000 0000 0000 0000 0000
00000100: 0000 0000 0943 a635 57b0 1e36 aaad 5435
00000110: ffbd 0436 ffbd 0436 e8a3 d235 a4ed 5036
00000120: 4e68 c635 5e42 b136 5e42 b136 f2ad 1035
00000130: 448a 6035 4a16 9734 af8c fc34 af8c fc34
00000140: 7203 2335 d7d8 f335 fc3a aa34 1d57 9835
00000150: 1d57 9835 4707 072c 4707 072c 1c9b 752c
00000160: b266 bf2c b266 bf2c 0fad 1736 830d a136
00000170: 3522 9635 e9b0 1e36 e9b0 1e36 6aba 6e36
00000180: 713b d836 5fe6 c735 ee12 0736 ee12 0736
00000190: d1d6 7e36 da32 1937 af64 f835 c848 8336
000001a0: c848 8336 0340 c635 56f5 1736 53dc 4935
000001b0: 6703 7236 6703 7236 80a0 ae35 bcdf 7736
000001c0: 7278 1435 764c 9735 764c 9735 1147 0736
000001d0: 5480 1a36 9a79 8035 7e13 e435 7e13 e435
000001e0: 6f80 8a2f 744e db35 c5d2 2733 6d82 9e36
000001f0: 6d82 9e36 a2e3 c535 c4d4 5d36 7bf2 2835
00000200: ca50 b335 ca50 b335 c454 3934 95ef 1e36
00000210: 953e 0d32 7582 bb35 7582 bb35 4d13 cd34
00000220: 561f 6f35 43ef ae34 cb76 dc34 cb76 dc34
00000230: 7e89 2136 2c78 9136 449a 8e35 193b 0c37
00000240: 193b 0c37 49cb 4537 2675 d137 13ee d636
00000250: 9908 a137 9908 a137
2.1214826e-05 3.39207e-05 1.1392401e-05 2.9331952e-05 2.9331952e-05 2.536029e-07 4.563543e-07 2.0687135e-07
4.35966e-07 4.35966e-07 3.3180822e-07 7.304504e-07 2.1675487e-07 3.1702137e-07 3.1702137e-07 9.709653e-07
2.4274386e-06 5.473943e-07 2.2527677e-06 2.2527677e-06 0.0 0.0 0.0 0.0
0.0 1.0345971e-06 2.6079242e-06 5.693631e-07 1.7591454e-06 1.7591454e-06 7.611053e-06 1.0756609e-05
5.964088e-06 8.776794e-06 8.776794e-06 4.7164588e-07 5.436435e-06 9.592882e-07 6.502813e-06 6.502813e-06
0.0 0.0 0.0 0.0 0.0 1.0312616e-05 1.3146089e-05 6.1940113e-06
1.25144e-05 1.25144e-05 9.434748e-06 1.2438443e-05 3.298643e-06 1.5840944e-05 1.5840944e-05 2.6326636e-06
5.8588457e-06 1.0426421e-06 2.5439094e-06 2.5439094e-06 0.0 0.0 0.0 0.0
0.0 1.2387474e-06 2.3646478e-06 7.922887e-07 1.9780125e-06 1.9780125e-06 1.5693922e-06 3.113274e-06
1.4782506e-06 5.282737e-06 5.282737e-06 5.3897304e-07 8.3647706e-07 2.814216e-07 4.7041019e-07 4.7041019e-07
6.0727245e-07 1.816802e-06 3.1707884e-07 1.1350236e-06 1.1350236e-06 1.9188694e-12 1.9188694e-12 3.4902697e-12
5.439948e-12 5.439948e-12 2.2601487e-06 4.799747e-06 1.1185826e-06 2.364681e-06 2.364681e-06 3.557327e-06
6.4442215e-06 1.4893702e-06 2.0127586e-06 2.0127586e-06 3.797399e-06 9.13135e-06 1.8506743e-06 3.912577e-06
3.912577e-06 1.477078e-06 2.2643558e-06 7.519895e-07 3.606279e-06 3.606279e-06 1.3010722e-06 3.6936099e-06
5.530957e-07 1.127263e-06 1.127263e-06 2.0157934e-06 2.3022485e-06 9.572134e-07 1.6992997e-06 1.6992997e-06
2.519331e-10 1.6339604e-06 3.907441e-08 4.7239505e-06 4.7239505e-06 1.4743894e-06 3.3055412e-06 6.293773e-07
1.3360052e-06 1.3360052e-06 1.7260305e-07 2.368329e-06 8.22151e-09 1.3970554e-06 1.3970554e-06 3.819827e-07
8.908004e-07 3.258411e-07 4.1064627e-07 4.1064627e-07 2.40709e-06 4.3353266e-06 1.0624722e-06 8.35841e-06
8.35841e-06 1.1789446e-05 2.4969293e-05 6.4054125e-06 1.91967e-05 1.91967e-05

exp_avg f4 [30]
00000000: 162b b5b9 0597 afb9 3be1 41b9 c0ef b339
00000010: 0000 0000 3c7d 2739 d98d b6ba 3ab3 3a39
00000020: 0000 0000 68a2 6b39 ccb0 c73a 386f b338
00000030: 0000 0000 52e6 91b8 0165 0639 9ece f0b9
00000040: 8c62 253a 0400 0000 b42e 6cb9 a0ca a4b8
00000050: 2933 0fba 1a37 b5b9 7701 c7b9 36b4 d9b9
00000060: a7fe 89ba 87f6 09b9 0e03 64ba dae0 21b9
00000070: 52c7 4d3a d9b5 233a
-0.00034555112 -0.0003349112 -0.00018489819 0.00034320168 0.0 0.00015973015 -0.0013927772 0.0001780511
0.0 0.00022471847 0.0015235185 8.556101e-05 0.0 -6.957039e-05 0.00012816863 -0.0004593031
0.0006308935 6e-45 -0.00022524112 -7.857871e-05 -0.00054626405 -0.00034564064 -0.0003795733 -0.00041523733
-0.0010528163 -0.00013157177 -0.0008697965 -0.0001543792 0.00078498304 0.0006245054

exp_avg_sq f4 [30]
00000000: 5cad 9c38 d294 6036 d769 ba35 3392 6937
00000010: 0000 0000 34c4 2137 af8f 9837 cfaa 0d38
00000020: 0000 0000 dcae f637 9456 1938 d9b0 1237
00000030: 0000 0000 ee23 1137 97d4 3037 8fff e135
00000040: 9bc5 0937 929d d12c 0fa1 0b37 1785 dc36
00000050: 499c bc37 0c2a 1937 c333 2c37 912f 7d36
00000060: 3d97 2937 249f c736 77c7 6a37 548e 9635
00000070: b0d6 8d37 9b68 ab38
7.4709504e-05 3.3465226e-06 1.3888883e-06 1.3921922e-05 0.0 9.64203e-06 1.818672e-05 3.3776098e-05
0.0 2.940691e-05 3.6558675e-05 8.743454e-06 0.0 8.651039e-06 1.0539915e-05 1.6838184e-06
8.211845e-06 5.957631e-12 8.322545e-06 6.5720046e-06 2.2484122e-05 9.1293e-06 1.0264051e-05 3.7727625e-06
1.0108398e-05 5.9491886e-06 1.3993928e-05 1.1217294e-06 1.6908481e-05 8.1734e-05

exp_avg f4 [3, 30]
00000000: 86a1 b23a 354d 8139 86df a539 26f4 e039
00000010: 0000 0000 e629 23b9 c164 3039 c735 67b9
00000020: 0000 0000 6b1b 9c3a 9c77 4c3a c07c 373a
00000030: 0000 0000 25f8 683a c953 983a befd 1d3a
00000040: c660 c3b8 0000 0000 a177 343a a5d3 a638
00000050: 1a27 ba3a dba2 b539 4743 2637 5b75 053a
00000060: 806c d4b5 23e5 1d3a 16f7 2cb7 b4e2 1a39
00000070: 1aaf 633a b75f 7839 b26c 87b9 40d8 893a
00000080: 02b0 5539 ab1a a1b9 0000 0000 0734 9e3a
00000090: bc0c 363a febb eb39 0000 0000 b08b 75ba
000000a0: 44d3 0fb9 01b7 86b7 0000 0000 01b1 3eba
000000b0: 58c1 1737 dd26 08ba b066 4d3a 0400 0000
000000c0: 7bba 47b9 8f75 5739 90dd 58ba 2362 1d3a
000000d0: 7c4c 043b 7e84 42b9 9a02 233a d7d9 433a
000000e0: 247d 673a ce08 fe39 8b22 f638 c4f8 0c3a
000000f0: b4fe 2a3a 4471 e638 aab4 3439 e64a 4fba
00000100: 0000 0000 1182 a4b9 dd51 c539 a1c9 18ba
00000110: 0000 0000 00fb 243a c888 293a 7b35 9639
00000120: 0000 0000 bab4 f1b9 b8fc fa39 e816 5eba
00000130: f44e 473a 0400 0000 9834 0739 c221 f239
00000140: 947c d0b9 9815 fe38 40f0 6537 f4d8 f7b8
00000150: af9b 6339 10d9 9738 1503 96b7 7677 9d39
00000160: b0cf 4b3a d641 bbb9
0.001362846 0.0002466232 0.0003163779 0.00042906514 0.0 -0.000155605 0.00016822202 -0.0002204991
0.0 0.0011910027 0.00077998056 0.0006999485 0.0 0.0008887074 0.001162165 0.0006026885
-9.31635e-05 0.0 0.0006884281 7.954919e-05 0.0014202327 0.00034644347 9.910035e-06 0.00050910347
-1.5826809e-06 0.0006023219 -1.0309528e-05 0.00014771038 0.0008685455 0.0002368678 -0.0002583019 0.0010516718
0.00020378831 -0.00030728182 0.0 0.0012069949 0.00069446466 0.00044962758 0.0 -0.00093668234
-0.00013716245 -1.6059263e-05 0.0 -0.00072743004 9.045318e-06 -0.00051937794 0.0007835431 6e-45
-0.00019047588 0.00020547792 -0.00082727615 0.0006003698 0.002018719 -0.00018550639 0.0006218344 0.00074711203
0.0008830598 0.00048453215 0.00011736628 0.0005377645 0.0006522939 0.00010988352 0.0001723344 -0.0007907584
0.0 -0.00031377425 0.0003763576 -0.0005828385 0.0 0.00062935054 0.00064672204 0.00028650076
0.0 -0.00046101754 0.00047872006 -0.0008472041 0.00076030125 6e-45 0.00012894196 0.00046182988
-0.0003976567 0.00012115686 1.3705401e-05 -0.000118182885 0.00021706404 7.240672e-05 -1.7882829e-05 0.0003003438
0.00077747833 -0.0003571647

exp_avg_sq f4 [3, 30]
00000000: ae26 4237 b4fd d336 fe28 b236 a679 8936
00000010: 0000 0000 39c1 1836 5256 aa35 82fa ed34
00000020: 0000 0000 9a2d 7537 7b59 9f36 5dee 1c36
00000030: 0000 0000 7f2f 0b37 2b19 b636 bd1b aa36
00000040: 1938 5b36 0000 0000 d0e9 4e36 d101 5135
00000050: 1a73 b237 01e1 d836 5868 1037 5693 cb35
00000060: df42 9533 0977 3837 ef86 7d34 d58b 8035
00000070: a7f2 7236 9446 0437 0959 a437 fde0 4d37
00000080: 56f7 9136 ed86 de37 0000 0000 da0f 0f38
00000090: 1c46 6d36 c265 8e37 0000 0000 4b6a 1638
000000a0: d26d 1637 02c9 1e36 0000 0000 b594 f237
000000b0: 85b4 bf36 0e0b cf37 5641 2537 cf59 6e2b
000000c0: c9b5 6a36 8a50 2d35 a5d8 8438 5138 d736
000000d0: a8e4 3438 6db3 d635 40ad 2036 7ba8 0c38
000000e0: 6d3b f336 3a89 3536 9a3e af36 6a5f 9538
000000f0: 1c9d 3538 44f1 0a38 8e9a c837 6408 cc37
00000100: 0000 0000 31be ce37 81fc 6336 ca12 eb36
00000110: 0000 0000 d0a3 6f38 6c88 ed37 d79d 6837
00000120: 0000 0000 1c08 3338 0cee bf37 d466 e937
00000130: 6090 f537 7512 f527 d136 b137 8aec 5d36
00000140: bec9 f038 f829 e137 8e1e 8d38 0065 2037
00000150: da2b d834 2681 c438 7aba 7c36 2eb5 5636
00000160: fef6 c037 a8ed 8d38
1.1572307e-05 6.317825e-06 5.3095855e-06 4.09708e-06 0.0 2.2762235e-06 1.269111e-06 4.4326958e-07
0.0 1.4613755e-05 4.748986e-06 2.3384557e-06 0.0 8.296104e-06 5.4269526e-06 5.069624e-06
3.2666196e-06 0.0 3.0832489e-06 7.786121e-07 2.1272852e-05 6.4634955e-06 8.607363e-06 1.5167559e-06
6.950517e-08 1.099497e-05 2.361155e-07 9.57744e-07 3.6202052e-06 7.884246e-06 1.9591784e-05 1.2271336e-05
4.3501304e-06 2.6527292e-05 0.0 3.410862e-05 3.535656e-06 1.6975104e-05 0.0 3.586178e-05
8.966266e-06 2.3660837e-06 0.0 2.8917895e-05 5.713259e-06 2.468147e-05 9.849979e-06 8.467922e-13
3.497453e-06 6.456472e-07 6.334604e-05 6.4140554e-06 4.3128297e-05 1.5996462e-06 2.3942703e-06 3.353551e-05
7.2488824e-06 2.7050978e-06 5.222694e-06 7.122646e-05 4.3300082e-05 3.312646e-05 2.3913828e-05 2.4322602e-05
0.0 2.4645678e-05 3.3972613e-06 7.005733e-06 0.0 5.7134603e-05 2.8316128e-05 1.38650275e-05
0.0 4.2684478e-05 2.2879824e-05 2.7823648e-05 2.9273506e-05 6.802117e-15 2.112557e-05 3.306925e-06
0.00011481669 2.6841633e-05 6.729095e-05 9.560259e-06 4.0265041e-07 9.370064e-05 3.765947e-06 3.1993945e-06
2.3003198e-05 6.767671e-05

exp_avg f4 [3]
00000000: e265 113a dd7f 8e3a 580f 65ba
0.0005546493 0.0010871846 -0.0008737943

exp_avg_sq f4 [3]
00000000: e2bb 8837 544f 1839 a878 1e39
1.6299953e-05 0.00014525402 0.00015113002
